…
ord">return</span> model</span><br></pre></td></tr></table></figure>
<figure class="highlight python"><table><tr><td class="code"><pre><span class="line">model = ResNet50()</span><br></pre></td></tr></table></figure>
<figure class="highlight python"><table><tr><td class="code"><pre><span class="line">model.summary()</span><br></pre></td></tr></table></figure>
<pre><code>_________________________________________________________________
Layer (type)                 Output Shape              Param #   
=================================================================
conv2d_1 (Conv2D)            (None, 30, 30, 32)        896       
_________________________________________________________________
conv2d_2 (Conv2D)            (None, 28, 28, 32)        9248      
_________________________________________________________________
max_pooling2d_2 (MaxPooling2 (None, 14, 14, 32)        0         
_________________________________________________________________
conv2d_3 (Conv2D)            (None, 12, 12, 64)        18496     
_________________________________________________________________
conv2d_4 (Conv2D)            (None, 10, 10, 64)        36928     
_________________________________________________________________
max_pooling2d_3 (MaxPooling2 (None, 5, 5, 64)          0         
_________________________________________________________________
flatten_2 (Flatten)          (None, 1600)              0         
_________________________________________________________________
dense_1 (Dense)              (None, 512)               819712    
_________________________________________________________________
dense_2 (Dense)              (None, 1)                 513       
=================================================================
Total params: 885,793
Trainable params: 885,793
Non-trainable params: 0
_________________________________________________________________
</code></pre><h1 id="开始预测"><a href="#开始预测" class="headerlink" title="开始预测"></a>开始预测</h1><figure class="highlight python"><table><tr><td class="code"><pre><span class="line">model.compile(l
…
征图，是时候应用MaxPooling了。</span></span><br><span class="line">model.add(layers.GlobalMaxPooling2D())</span><br><span class="line"></span><br><span class="line"><span class="comment"># 最后，我们添加一个分类层。</span></span><br><span class="line">model.add(layers.Dense(<span class="number">10</span>))</span><br></pre></td></tr></table></figure>
<pre><code>Model: &quot;sequential_11&quot;
_________________________________________________________________
Layer (type)                 Output Shape              Param #   
=================================================================
conv2d_6 (Conv2D)            (None, 123, 123, 32)      2432      
_________________________________________________________________
conv2d_7 (Conv2D)            (None, 121, 121, 32)      9248      
_________________________________________________________________
max_pooling2d_3 (MaxPooling2 (None, 40, 40, 32)        0         
=================================================================
Total params: 11,680
Trainable params: 11,680
Non-trainable params: 0
_________________________________________________________________
Model: &quot;sequential_11&quot;
_________________________________________________________________
Layer (type)                 Output Shape              Param #   
=================================================================
conv2d_6 (Conv2D)            (None, 123, 123, 32)      2432      
_________________________________________________________________
conv2d_7 (Conv2D)            (None, 121, 121, 32)      9248      
_________________________________________________________________
max_pooling2d_3 (MaxPooling2 (None, 40, 40, 32)        0         
_________________________________________________________________
conv2d_8 (Conv2D)            (None, 38, 38, 32)        9248      
_________________________________________________________________
conv2d_9 (Conv2D)            (None, 36, 36, 32)        9248      
_________________________________________________________________
max_pooling2d_4 (MaxPooling2 (None, 12, 12, 32)        0         
_________________________________________________________________
conv2d_10 (Conv2D)           (None, 10, 10, 32)        9248      
_________________________________________________________________
conv2d_11 (Conv2D)           (None, 8, 8, 32)          9248      
_________________________________________________________________
max_pooling2d_5 (MaxPooling2 (None, 4, 4, 32)          0         
=================================================================
Total params: 48,672
Trainable params: 48,672
Non-trainable params: 0
_________________________________________________________________
</code></pre><h1 id="拥有模型后该怎么办"><a href="#拥有模型后该怎么办" class="headerlink" title="拥有模型后该怎么办"></a>拥有模型后该怎么办</h1><p>一旦模型架构准备就绪，将需要：</p>
<pre><code>训练模型，评估模型并进行推理。
将模型保存到磁盘并还原。
通过利用多个GPU来加速模型训练。
…
