…
且调用 model.weights结果仅说明了这一点）。权重是在模型首次看到一些输入数据时创建的： 1234567891011model = keras.Sequential( [ layers.Dense(2, activation="relu"), layers.Dense(3, activation="relu"), layers.Dense(4), ])x = tf.ones((1, 4))y = model(x)print("Number of weights after calling the model:", len(model.weights)) # 6 Number of weights after calling the model: 6 一旦“构建”了模型，就可以调用其summary()方法以显示其内容： 1model.summary() Model: &quot;sequential_6&quot; _________________________________________________________________ Layer (type) Output Shape Param # ================================================================= dense_4 (Dense) (1, 2) 10 _________________________________________________________________ dense_5 (Dense) (1, 3) 9 _________________________________________________________________ dense_6 (Dense) (1, 4) 16 ================================================================= Total params: 35 Trainable params: 35 Non-trainable params: 0 _________________________________________________________________ 但是，当逐步构建顺序模型时，能够显示到目前为止的模型摘要（包括当前输出形状）非常有用。在这种情况下，应该通过将一个Input 对象传递给模型来启动模型，以使它从一开始就知道其输入形状： 12345model = keras.Sequential()model.add(keras.Input(shape=(4,)))model.add(layers.Dense(2, activation="relu"))model.summary() Model: &quot;sequential_8&quot; _________________________________________________________________ Layer (type) Output Shape Param # ================================================================= dense_10 (Dense) (None, 2) 10 ================================================================= Total params: 10 Trainable params: 10 Non-trainable params: 0 _________________________________________________________________ 由于该Input对象model.layers不是图层，因此不会显示为的一部分： 1model.layers [&lt;tensorflow.python.keras.layers.core.Dense at 0x1ee68ade4e0&gt;] 一个简单的替代方法是将一个input_shape参数传递给第一层： 1234model = keras.Sequential()model.add(layers.Dense(2, activation="relu", input_shape=(4,)))model.summary() Model: &quot;sequential_9&quot; _________________________________________________________________ Layer (type) Output Shape Param # ================================================================= dense_11 (Dense) (None, 2) 10 ================================================================= Total params: 10 Trainable params: 10 Non-trainable params: 0 _________________________________________________________________ 使用这样的预定义输入形状构建的模型始终具有权重（甚至在查看任何数据之前），并且始终具有定义的输出形状。 通常，建议的最佳做法是始终事先指定顺序模型的输入形状（如果预先知道它是什么）。 常见的调试工作流程：add()+summary()在构建新的顺序体系结构时，以渐进方式堆叠层add()并经常打印模型摘要很有用。例如，可以监视堆栈Conv2D和MaxPooling2D图层如何对图像特征贴图进行下采样： 123
…
yers.Conv2D(32, 3, activation="relu"))model.add(layers.Conv2D(32, 3, activation="relu"))model.add(layers.MaxPooling2D(3))model.add(layers.Conv2D(32, 3, activation="relu"))model.add(layers.Conv2D(32, 3, activation="relu"))model.add(layers.MaxPooling2D(2))model.summary()# 现在我们有了4x4的特征图，是时候应用MaxPooling了。model.add(layers.GlobalMaxPooling2D())# 最后，我们添加一个分类层。model.add(layers.Dense(10)) Model: &quot;sequential_11&quot; _________________________________________________________________ Layer (type) Output Shape Param # ================================================================= conv2d_6 (Conv2D) (None, 123, 123, 32) 2432 _________________________________________________________________ conv2d_7 (Conv2D) (None, 121, 121, 32) 9248 _________________________________________________________________ max_pooling2d_3 (MaxPooling2 (None, 40, 40, 32) 0 ================================================================= Total params: 11,680 Trainable params: 11,680 Non-trainable params: 0 _________________________________________________________________ Model: &quot;sequential_11&quot; _________________________________________________________________ Layer (type) Output Shape Param # ================================================================= conv2d_6 (Conv2D) (None, 123, 123, 32) 2432 _________________________________________________________________ conv2d_7 (Conv2D) (None, 121, 121, 32) 9248 _________________________________________________________________ max_pooling2d_3 (MaxPooling2 (None, 40, 40, 32) 0 _________________________________________________________________ conv2d_8 (Conv2D) (None, 38, 38, 32) 9248 _________________________________________________________________ conv2d_9 (Conv2D) (None, 36, 36, 32) 9248 _________________________________________________________________ max_pooling2d_4 (MaxPooling2 (None, 12, 12, 32) 0 _________________________________________________________________ conv2d_10 (Conv2D) (None, 10, 10, 32) 9248 _________________________________________________________________ conv2d_11 (Conv2D) (None, 8, 8, 32) 9248 _________________________________________________________________ max_pooling2d_5 (MaxPooling2 (None, 4, 4, 32) 0 ================================================================= Total params: 48,672 Trainable params: 48,672 Non-trainable params: 0 _________________________________________________________________ 拥有模型后该怎么办一旦模型架构准备就绪，将需要： 训练模型，评估模型并进行推理。 将模型保存到磁盘并还原。 通过利用多个GPU来加速模型训练。 使用顺序模型进行特征提取一旦建立了顺序模型，它的行为就类似于功能API模型。这意味着每个层都有一个input and output属性。这些属性可以做一些事情，例如快速创建一个模型，以提取顺序模型中所有中间层的输出： 1234567891011121
…
"a", s = 2) # AVGPOOL (≈1 line). Use "X = AveragePooling2D(...)(X)" #X = AveragePooling2D((2, 2), name = "ave_pool")(X) ### END CODE HERE ### # output layer X = Flatten()(X) X = Dense(classes, activation='softmax', name='fc' + str(classes), kernel_initializer = glorot_uniform(seed=0))(X) # Create model model = Model(inputs = X_input, outputs = X, name='ResNet50') return model 1model = ResNet50() 1model.summary() _________________________________________________________________ Layer (type) Output Shape Param # ================================================================= conv2d_1 (Conv2D) (None, 30, 30, 32) 896 _________________________________________________________________ conv2d_2 (Conv2D) (None, 28, 28, 32) 9248 _________________________________________________________________ max_pooling2d_2 (MaxPooling2 (None, 14, 14, 32) 0 _________________________________________________________________ conv2d_3 (Conv2D) (None, 12, 12, 64) 18496 _________________________________________________________________ conv2d_4 (Conv2D) (None, 10, 10, 64) 36928 _________________________________________________________________ max_pooling2d_3 (MaxPooling2 (None, 5, 5, 64) 0 _________________________________________________________________ flatten_2 (Flatten) (None, 1600) 0 _________________________________________________________________ dense_1 (Dense) (None, 512) 819712 _________________________________________________________________ dense_2 (Dense) (None, 1) 513 ================================================================= Total params: 885,793 Trainable params: 885,793 Non-trainable params: 0 _________________________________________________________________ 开始预测123model.compile(loss='binary_crossentropy', optimizer=optimizers.RMSprop(lr=1e-4), metrics=['acc']) 12345hist = model.fit(images, labels, validation_split=0.2, batch_size=100, epochs = 20, )
…
